…
DEBUG - 02/12/18 02:09:06 - 0:02:05 - Train Male: 0.58063 / 0.41937
DEBUG - 02/12/18 02:09:06 - 0:02:05 - Valid Male: 0.57427 / 0.42573
DEBUG - 02/12/18 02:09:06 - 0:02:05 - Test  Male: 0.61352 / 0.38648
DEBUG - 02/12/18 02:09:06 - 0:02:05 - Train Smiling: 0.52030 / 0.47970
DEBUG - 02/12/18 02:09:06 - 0:02:05 - Valid Smiling: 0.51669 / 0.48331
DEBUG - 02/12/18 02:09:06 - 0:02:05 - Test  Smiling: 0.49970 / 0.50030
INFO - 02/12/18 02:09:13 - 0:02:12 - AutoEncoder(
                                       (enc_layers): ModuleList(
                                         (0): Sequential(
                                           (0): Conv2d(3, 32, kernel_size=(4, 4), stride=(2, 2), padding=(1, 1))
                                           (1): LeakyReLU(0.2, inplace)
                                         )
                                         (1): Sequential(
                                           (0): Conv2d(32, 64, kernel_size=(4, 4), stride=(2, 2), padding=(1, 1))
                                           (1): BatchNorm2d(64, eps=1e-05, momentum=0.1, affine=True)
                                           (2): LeakyReLU(0.2, inplace)
                                         )
                                         (2): Sequential(
                                           (0): Conv2d(64, 128, kernel_size=(4, 4), stride=(2, 2), padding=(1, 1))
                                           (1): BatchNorm2d(128, eps=1e-05, momentum=0.1, affine=True)
                                           (2): LeakyReLU(0.2, inplace)
                                         )
                                         (3): Sequential(
                                           (0): Conv2d(128, 256, kernel_size=(4, 4), stride=(2, 2), padding=(1, 1))
                                           (1): BatchNorm2d(256, eps=1e-05, momentum=0.1, affine=True)
                                           (2): LeakyReLU(0.2, inplace)
                                         )
                                         (4): Sequential(
                                           (0): Conv2d(256, 512, kernel_size=(4, 4), stride=(2, 2), padding=(1, 1))
                                           (1): BatchNorm2d(512, eps=1e-05, momentum=0.1, affine=True)
                                           (2): LeakyReLU(0.2, inplace)
                                         )
                                         (5): Sequential(
                                           (0): Conv2d(512, 512, kernel_size=(4, 4), stride=(2, 2), padding=(1, 1))
                                           (1): BatchNorm2d(512, eps=1e-05, momentum=0.1, affine=True)
                                           (2): LeakyReLU(0.2, inplace)
                                         )
                                       )
                                       (dec_layers): ModuleList(
                                         (0): Sequential(
                                           (0): ConvTranspose2d(516, 512, kernel_size=(4, 4), stride=(2, 2), padding=(1, 1), bias=False)
                                           (1): BatchNorm2d(512, eps=1e-05, momentum=0.1, affine=True)
                                           (2): ReLU(inplace)
                                         )
                                         (1): Sequential(
                                           (0): ConvTranspose2d(516, 256, kernel_size=(4, 4), stride=(2, 2), padding=(1, 1), bias=False)
                                           (1): BatchNorm2d(256, eps=1e-05, momentum=0.1, affine=True)
                                           (2): ReLU(inplace)
                                         )
                                         (2): Sequential(
                                           (0): ConvTranspose2d(260, 128, kernel_size=(4, 4), stride=(2, 2), padding=(1, 1), bias=False)
                                           (1): BatchNorm2d(128, eps=1e-05, momentum=0.1, affine=True)
                                           (2): ReLU(inplace)
                                         )
                                         (3): Sequential(
                                           (0): ConvTranspose2d(132, 64, kernel_size=(4, 4), stride=(2, 2), padding=(1, 1), bias=False)
                                           (1): BatchNorm2d(64, eps=1e-05, momentum=0.1, affine=True)
                                           (2): ReLU(inplace)
                                         )
                                         (4): Sequential(
                                           (0): ConvTranspose2d(68, 32, kernel_size=(4, 4), stride=(2, 2), padding=(1, 1), bias=False)
                                           (1): BatchNorm2d(32, eps=1e-05, momentum=0.1, affine=True)
                                           (2): ReLU(inplace)
                                         )
                                         (5): Sequential(
                                           (0): ConvTranspose2d(36, 3, kernel_size=(4, 4), stride=(2, 2), padding=(1, 1), bias=False)
                                           (1): Tanh()
                                         )
                                       )
                                     )
INFO - 02/12/18 02:09:13 - 0:02:12 - 14032352 parameters in the autoencoder. 
INFO - 02/12/18 02:09:13 - 0:02:12 - LatentDiscriminator(
                                       (conv_layers): Sequential(
                                         (0): Sequential(
                                           (0): Conv2d(512, 512, kernel_size=(4, 4), stride=(2, 2), padding=(1, 1))
                                           (1): BatchNorm2d(512, eps=1e-05, momentum=0.1, affine=True)
                                           (2): LeakyReLU(0.2, inplace)
                                           (3): Dropout(p=0.3)
                                         )
                                         (1): Sequential(
                                           (0): Conv2d(512, 512, kernel_size=(4, 4), stride=(2, 2), padding=(1, 1))
                                           (1): BatchNorm2d(512, eps=1e-05, momentum=0.1, affine=True)
                                           (2): LeakyReLU(0.2, inplace)
                                           (3): Dropout(p=0.3)
                                         )
                                       )
                                       (proj_layers): Sequential(
                                         (0): Linear(in_features=512, out_features=512, bias=True)
                                         (1): LeakyReLU(0.2, inplace)
                                         (2): Linear(in_features=512, out_features=4, bias=True)
                                       )
                                     )
INFO - 02/12/18 02:09:13 - 0:02:12 - 8656388 parameters in the latent discriminator. 
INFO - 02/12/18 02:09:13 - 0:02:12 - Starting epoch 0...
INFO - 02/12/18 02:09:18 - 0:02:17 - 000768 - Latent discriminator : 1.35089 / Reconstruction loss : 0.29414
INFO - 02/12/18 02:09:21 - 0:02:21 - 001568 - Latent discriminator : 1.20191 / Reconstruction loss : 0.15365
…
